…
"status":"ok","timestamp":1646309058263,"user_tz":-330,"elapsed":2331,"user":{"displayName":"Anirudh A","photoUrl":"https://lh3.googleusercontent.com/a/default-user=s64","userId":"00619644380298687637"}},"outputId":"241ffc9e-3320-4123-e753-4658991149ae"},"execution_count":8,"outputs":[{"output_type":"stream","name":"stdout","text":["Model: \"sequential\"\n","_________________________________________________________________\n"," Layer (type)                Output Shape              Param #   \n","=================================================================\n"," conv2d (Conv2D)             (None, 256, 256, 32)      896       \n","                                                                 \n"," activation (Activation)     (None, 256, 256, 32)      0         \n","                                                                 \n"," batch_normalization (BatchN  (None, 256, 256, 32)     128       \n"," ormalization)                                                   \n","                                                                 \n"," max_pooling2d (MaxPooling2D  (None, 85, 85, 32)       0         \n"," )                                                               \n","                                                                 \n"," dropout (Dropout)           (None, 85, 85, 32)        0         \n","                                                                 \n"," conv2d_1 (Conv2D)           (None, 85, 85, 64)        18496     \n","                                                                 \n"," activation_1 (Activation)   (None, 85, 85, 64)        0         \n","                                                                 \n"," batch_normalization_1 (Batc  (None, 85, 85, 64)       256       \n"," hNormalization)                                                 \n","                                                                 \n"," conv2d_2 (Conv2D)           (None, 85, 85, 64)        36928     \n","                                                                 \n"," activation_2 (Activation)   (None, 85, 85, 64)        0         \n","                                                                 \n"," batch_normalization_2 (Batc  (None, 85, 85, 64)       256       \n"," hNormalization)                                                 \n","                                                                 \n"," max_pooling2d_1 (MaxPooling  (None, 42, 42, 64)       0         \n"," 2D)                                                             \n","                                                                 \n"," dropout_1 (Dropout)         (None, 42, 42, 64)        0         \n","                                                                 \n"," conv2d_3 (Conv2D)           (None, 42, 42, 128)       73856     \n","                                                                 \n"," activation_3 (Activation)   (None, 42, 42, 128)       0         \n","                                                                 \n"," batch_normalization_3 (Batc  (None, 42, 42, 128)      512       \n"," hNormalization)                                                 \n","                                                                 \n"," conv2d_4 (Conv2D)           (None, 42, 42, 128)       147584    \n","                                                                 \n"," activation_4 (Activation)   (None, 42, 42, 128)       0         \n","                                                                 \n"," batch_normalization_4 (Batc  (None, 42, 42, 128)      512       \n"," hNormalization)                                                 \n","                                                                 \n"," max_pooling2d_2 (MaxPooling  (None, 21, 21, 128)      0         \n"," 2D)                                                             \n","                                                                 \n"," dropout_2 (Dropout)         (None, 21, 21, 128)       0         \n","                                                                 \n"," flatten (Flatten)           (None, 56448)             0         \n","                                                                 \n"," dense (Dense)               (None, 1024)              57803776  \n","                                                                 \n"," activation_5 (Activation)   (None, 1024)              0         \n","                                                                 \n"," batch_normalization_5 (Batc  (None, 1024)             4096      \n"," hNormalization)                                                 \n","                                                                 \n"," dropout_3 (Dropout)         (None, 1024)              0         \n","                                                                 \n"," dense_1 (Dense)             (None, 15)                15375     \n","                                                                 \n"," activation_6 (Activation)   (None, 15)                0         \n","                                                                 \n","=================================================================\n","Total params: 58,102,671\n","Trainable params: 58,099,791\n","Non-trainable params: 2,880\n","_________________________________________________________________\n"]}]},{"cell_type":"code","source":["label_binarizer = ['Pepper__bell___Bacterial_spo
…
